models/03_poyttorch_computer_vision_model_2.pth (torch, 35790 bytes, 10 tensors)

conv_block_1.0.weight f4 [10, 1, 3, 3]
000000 fe e1 67 3e c8 21 b2 3e f0 0d 09 bf 8e d8 8f 3e
       0.22644803 0.34791398 -0.5353689 0.28094906
000010 52 6e 66 3e 91 35 21 be 5c 21 45 be 1a 06 64 3d
       0.22503021 -0.1574309 -0.19251007 0.05566988
000020 e6 f5 81 3e 61 03 b3 be 06 0f de 3e f5 58 44 bd
       0.25382918 -0.34963515 0.43370837 -0.0479364
000030 bb 9f 86 3e 59 9d b7 3e a7 6a 53 3e df 23 56 be
       0.2629374 0.35862234 0.20646153 -0.20912121
000040 05 8f 0a 3e c5 47 68 3e de 7d 96 be e4 3d 55 3e
       0.1353112 0.22683628 -0.29392904 0.2082439
000050 d0 0c 4d 3e 30 cd 91 bf 3c 4e 32 bf 61 9f 9e 3e
       0.20024419 -1.1390743 -0.69650626 0.3098097
000060 27 2b 8f bf e1 fd 5a bf 3f 5b 37 3d 7b 8b 6c bf
       -1.1185044 -0.8554364 0.044764753 -0.9240033
000070 f2 e7 b1 bf 10 60 34 bf b3 bd eb 3d b9 60 82 bf
       -1.3898909 -0.7045908 0.11510792 -1.0185767
000080 f7 14 97 3e ca fb 8a 3e cc 55 20 be 42 04 a9 3e
       0.29508182 0.27145225 -0.15657729 0.3301106
000090 30 16 7f 3d 3d 42 c1 3e 24 56 4a 3d ba bb d5 be
       0.06227702 0.37745848 0.049398556 -0.41744787
0000a0 00 a4 cd 3c e8 d8 85 be be ff e3 bd d9 3c 8b 3e
       0.025102615 -0.2614205 -0.11132763 0.2719486
0000b0 49 05 21 3e 48 82 1e be 08 69 31 3e 41 d1 28 3d
       0.15724672 -0.15479386 0.17325222 0.041215185
0000c0 90 18 29 3e e3 2b 52 be bc 9c a9 be 24 81 03 be
       0.16513276 -0.20524554 -0.3312739 -0.12842232
0000d0 47 34 83 be e5 06 7f 3e 6e 81 bf 3e 67 d6 c3 3e
       -0.25625822 0.24904974 0.37403435 0.38249514
0000e0 7b 18 fa ba e9 c9 0e 3e d4 fb 66 3e 54 7d d9 be
       -0.0019080782 0.1394421 0.22557002 -0.4247843
0000f0 2e 4d b7 bd 06 44 44 bf 98 6c b7 be 0f 1e 7a be
       -0.08950268 -0.76666296 -0.35825038 -0.24425529
000100 f4 cc fe 3d 1d 93 75 be 8b 11 b9 3e b0 55 97 be
       0.124414355 -0.239819 0.36146197 -0.29557562
000110 e4 38 05 bf 11 45 13 be 69 9d 26 3f 52 4e 80 3e
       -0.52039933 -0.14381815 0.6508394 0.25059754
000120 d8 0a 56 3f d0 9d 1b bf f7 28 17 bf b2 eb b2 be
       0.83610296 -0.6078768 -0.5904688 -0.34945446
000130 56 4f 3f bf 64 7f d4 bd 27 02 07 3f f7 a4 19 3f
       -0.7473043 -0.1037586 0.5273766 0.6001734
000140 08 dc ae 3d ff 03 68 be db fd 34 3e 40 b8 09 be
       0.085380614 -0.22657774 0.17674963 -0.13449192
000150 c0 cc 4e 3e 64 d5 a5 bd 73 42 42 3e d0 bb 84 be
       0.20195293 -0.08097342 0.18970661 -0.2592454
000160 17 48 2c be 74 bd cf 3d
       -0.16824375 0.10143557

conv_block_1.0.bias f4 [10]
000000 bf d4 d5 3d 77 46 97 3d 50 c4 64 3e bc 77 8e 3e
       0.10440969 0.07386487 0.22340512 0.27825725
000010 ee 9a 21 bd c4 97 5f be fc c2 2a bd 94 6f 9c bd
       -0.039454393 -0.21835238 -0.041689858 -0.07638469
000020 db 2a 83 be 18 61 a5 be
       -0.25618634 -0.3230064

conv_block_1.2.weight f4 [10, 10, 3, 3]
000000 d3 5d 8a 3e e2 2a a5 3d 4f 71 f7 bc 91 f9 2e 3d
       0.27024707 0.0806482 -0.030205397 0.042718474
000010 c9 e5 ff bd 74 26 96 be 68 8b 46 bd c6 c0 84 be
       -0.12495 -0.29326212 -0.048472792 -0.25928324
000020 17 70 6a be 83 c9 5d bd f6 12 79 bb c4 02 80 be
       -0.22894321 -0.054147255 -0.0038005686 -0.2500211
000030 15 53 4c be 6b c9 9c be 3d c3 de be 4b 29 43 be
       -0.19953568 -0.3062242 -0.4350833 -0.19058721
000040 ac 7e 7b be b9 d3 b5 be f6 91 9b bc a1 ca ab 3c
       -0.2456004 -0.35513094 -0.018990498 0.020970644
000050 a3 a9 95 3e 0c 58 9b 3d 43 bd bc 3e f0 d8 79 3e
       0.29230985 0.07585153 0.36863145 0.24399161
000060 20 21 2e 3d 06 f6 2c 3d 27 aa 24 3e ee 9e 6b be
       0.04251206 0.042226814 0.16080533 -0.23009846
000070 66 6b c5 bd 1e c3 4e be a4 4b a5 bc af cc c5 3a
       -0.09639625 -0.20191619 -0.02017767 0.0015090908
000080 a8 03 f9 bd cf 74 4b 3e ca ba 21 3e 25 9b 52 3e
       -0.121589005 0.19868778 0.1579391 0.20566995
000090 0b 7d 46 be 13 c9 49 be c7 42 06 be fa c6 d2 bd
       -0.19383638 -0.1970561 -0.13111411 -0.10291858
0000a0 2a 8a df 3a 6c 0e 04 be 4a ea 0c 3d a4 9b 04 be
       0.0017054726 -0.12896127 0.034403123 -0.12949997
0000b0 e8 f4 72 bd f3 60 c1 3c a7 aa 5f 3d 6c 1c a8 3d
       -0.059315592 0.0236058 0.054606106 0.08208546
0000c0 4a bb c2 3d e3 ab aa bd dd 70 e7 3c 4d 7c 3a bd
       0.09508379 -0.08333566 0.02825206 -0.0455287
0000d0 53 d9 4a bc b1 a7 a1 bd 85 85 84 3e c6 15 63 bd
       -0.012380916 -0.07893313 0.25883117 -0.055440687
0000e0 e1 02 a0 bc 1c f1 af 3d 67 e2 09 bd 3f f4 92 bd
       -0.019532623 0.0859091 -0.03366318 -0.071754925
0000f0 bf 3f ce bc 85 1a 92 bd b9 eb 2c bd bc 29 90 bd
       -0.02517688 -0.071339644 -0.04221699 -0.0703921
000100 77 6a 3f 3d 4d 62 78 bc e2 96 8d bd 89 00 a9 3d
       0.046732392 -0.0151601555 -0.06913544 0.08252055
000110 3d a5 52 3c 93 a4 5b bd 3b 33 00 be 4d 07 76 bd
       0.012856779 -0.053623747 -0.12519543 -0.060065556
000120 14 82 2c 3c 39 19 9c 3c 37 9b 76 bd 36 79 f5 bd
       0.01052906 0.019054996 -0.06020662 -0.1198601
000130 c8 28 a9 bd 3a 46 80 3d f3 5b 40 3e 6a 90 42 be
       -0.082597315 0.06263395 0.18785076 -0.19000402
000140 8f bc 13 be 13 f1 5e 3d a4 16 9c 3c de 8c 19 bd
       -0.14427398 0.054429125 0.019053765 -0.037487857
000150 0d 5b 61 3d c6 e4 62 3d 58 75 21 3d d8 bc 97 bc
       0.055018473 0.055393957 0.03941855 -0.018522665
000160 c4 a8 e4 bc 1e a7 38 3c 50 25 83 3e 68 d1 c3 be
       -0.027912505 0.011270313 0.25614405 -0.38245702
000170 0a 97 a8 be 21 28 d4 3e 9a 86 31 be 77 ad 9c 3d
       -0.32927734 0.41436866 -0.17336503 0.07650273
000180 bd b6 53 bd f0 53 1f bd 13 44 16 3e 31 fb 8c 3d
       -0.051687945 -0.03889841 0.14674406 0.068838485
000190 e2 94 d4 be a3 c0 16 bd 1f 29 62 3e bd e7 c9 bd
       -0.4151984 -0.036804806 0.22085999 -0.09858654
0001a0 f0 02 d5 3e 6f 73 ac bd e3 b7 94 bd 12 dd 8a 3d
       0.41603804 -0.08420455 -0.07261636 0.06780447
0001b0 1c 77 2c 3a 19 12 9f bd 61 a1 fb 3d 9a 36 19 3d
       0.0006579028 -0.07767124 0.1228664 0.037405588
0001c0 59 40 53 be eb e0 78 bd a7 b8 0d bd ac 6b 9d 3a
       -0.20630015 -0.060761373 -0.034599926 0.0012010238
0001d0 aa c7 96 bd ca d0 83 3e 3d 98 71 3e ed f4 57 3e
       -0.07362302 0.2574523 0.2359323 0.21089526
0001e0 0e 0f a5 3d e5 b1 ac 3d 3d 11 d3 3d 64 52 24 be
       0.08059512 0.08432368 0.10306022 -0.16047055
0001f0 0b 37 da 3c aa 00 3f 3d d8 13 23 3c 5f 89 f4 bd
       0.026637575 0.046631493 0.009953462 -0.11940264
000200 9e 04 01 be e3 d9 fe bd fe 7d 38 be e1 6d 37 3d
       -0.12599418 -0.12443902 -0.18016812 0.044782523
000210 1f 34 24 3e 38 8d 14 3e 66 5d fd 3d c6 d4 e2 3c
       0.16035508 0.14506996 0.1237133 0.027689349
000220 61 14 25 b9 92 6a a4 bd 35 24 b5 bd 8a 4d c9 bd
       -0.00015743218 -0.08028139 -0.088447966 -0.098292425
000230 ae 1d 3d 3d de 11 51 bd 6e 7a cb bc 26 54 77 bd
       0.046170883 -0.05104243 -0.024838652 -0.060382985
000240 a9 a1 ff bd 59 1c 74 be f4 73 30 be 1b bc b7 3d
       -0.12482006 -0.23838939 -0.17231733 0.08971425
000250 c1 30 c7 bc 42 6e a1 3d d3 7c 53 3d 3d 06 fa bd
       -0.02431524 0.07882358 0.051632714 -0.12208221
000260 66 87 b2 bd 3a 7f 31 3d 7c 24 03 3d d4 21 8c be
       -0.087172315 0.043334223 0.032017216 -0.2736956
000270 1b 2b 31 bc 91 0a 26 be e3 56 21 3d 5c ed aa 3d
       -0.0108135 -0.16214968 0.039389502 0.08346054
000280 96 e1 63 3d 48 89 0a be 35 3d 10 3e c2 73 88 3b
       0.055635057 -0.13528931 0.14085849 0.00416419
000290 d5 dc 21 be 0b ae 16 3d 86 27 06 be 21 68 a1 bd
       -0.15806897 0.036787074 -0.13101014 -0.07881189
0002a0 44 3e 89 bc 5d f0 84 3d 91 89 67 3e 86 81 d6 bd
       -0.016753323 0.06491158 0.22611071 -0.104739234
0002b0 c9 f7 85 3d 1a 4a a1 3d 8c 79 cb 3d 75 56 cc bc
       0.06541402 0.07875462 0.099352926 -0.02494357
0002c0 d9 a3 b1 bd 5a b6 c2 3c c7 fc 6e 3d ef 1e d7 bd
       -0.086738296 0.023768593 0.058346536 -0.10503947
0002d0 46 0e 05 bd a9 fb 8f bd 69 f0 63 bc 1c 28 62 bd
       -0.032484315 -0.07030422 -0.013912299 -0.055214033
0002e0 9a dc 47 bd 70 13 02 bd 89 5f d1 bd 56 de bb 3d
       -0.048794366 -0.03175682 -0.102233 0.091732666
0002f0 7b 75 c6 3d cf c7 91 bc 9e 8d 4e bc 90 63 2f bd
       0.09690376 -0.017795471 -0.012607006 -0.04281956
000300 06 47 c6 bd cc a3 d8 bd 4a b8 1a 3d 8e 9a 68 bd
       -0.096815154 -0.10578117 0.037773408 -0.05678802
000310 11 8c 87 bd 55 b0 9f bb a8 52 3d bd 56 1d 3e bd
       -0.066185124 -0.0048733153 -0.046221405 -0.046414696
000320 ff c2 18 bc b2 16 a5 bc d4 24 17 bd 19 1e 45 bd
       -0.009323834 -0.020152424 -0.036900356 -0.048124406
000330 de 42 a9 bd 79 a3 b8 3d ca 21 27 bd 69 1d 6e 3c
       -0.08264707 0.09015555 -0.040803708 0.014533379
000340 4a d9 45 bd 03 be 4b bb 8e 28 c5 3d c9 d0 2f 3d
       -0.048302926 -0.0031088598 0.09626876 0.042923722
000350 b4 04 b1 bd 5c 77 f7 3c 41 98 bb 3d 68 b5 24 3d
       -0.08643475 0.030208282 0.091598995 0.040212065
000360 3b 9e 8c 3d 83 ed d2 3d 02 c3 8a bc 40 19 c1 3c
       0.068661176 0.10299208 -0.01693869 0.02357161
000370 9e 8d 96 bd da ed c3 bc c8 8d 91 3d 15 69 4b 3d
       -0.0735123 -0.023917127 0.07107121 0.04966076
000380 90 f2 8e bd 90 1b ad bd cd 87 93 bd ce 0a d5 bd
       -0.06979859 -0.08452523 -0.07203636 -0.104024515
000390 7c 94 a6 bd dc 92 d6 bc 89 56 92 3d 45 5a 90 3c
       -0.0813379 -0.026193075 0.071454115 0.017621169
0003a0 4c 78 a4 bd 06 5c ad bd f4 fb 39 3d bb d0 aa bd
       -0.08030757 -0.08464818 0.045406297 -0.083405934
0003b0 5a bf 86 bc 37 41 4f 3d 50 fa 42 bd c0 de 37 bc
       -0.016448665 0.050599303 -0.047601998 -0.011222541
0003c0 70 4b 06 bc 2e da c2 bc a4 70 5c bd 0d a1 c0 bd
       -0.008196697 -0.023785677 -0.05381836 -0.09405718
0003d0 b3 af ae bd 4c 29 67 bd af be d1 3d 22 07 51 bd
       -0.08529606 -0.05643587 0.10241448 -0.051032193
0003e0 9c 85 98 bd e4 ba 9f 3c 17 99 03 3d e2 89 82 3d
       -0.07447359 0.019498296 0.03212842 0.06373955
0003f0 4d 00 a1 3d dc 6f 67 3d 81 4e d6 bd 62 49 8d 3c
       0.078613855 0.05650316 -0.10464192 0.017246906

conv_block_1.2.bias f4 [10]
000000 0b 67 4a 3e fc 52 96 3d e6 13 7f bd f9 68 04 3f
       0.1976587 0.07340047 -0.062274836 0.51722676
000010 d6 21 c7 bc 18 bb ea bc a7 45 56 3e 67 2b b3 3e
       -0.024308126 -0.028653666 0.20925008 0.3499405
000020 de e2 80 3d 51 f9 f7 bc
       0.062932715 -0.03027025

conv_block_2.0.weight f4 [10, 10, 3, 3]
000000 3c 6a bb 3c 24 95 ca bd ac 0d bd bd 7a 4f 11 3d
       0.022877805 -0.098917276 -0.09231123 0.035476185
000010 46 cb 45 3d ef e5 a4 3d 12 5a 63 bd a5 70 e1 3d
       0.04828956 0.08051669 -0.05550582 0.11007813
000020 96 36 ac 3d 69 46 35 3d 6c 0e dc bd 93 0e 48 bd
       0.08408849 0.0442566 -0.10744938 -0.048842024
000030 e5 a3 c4 bd 2f b7 80 bd b6 75 3b 3d 46 19 5b 3d
       -0.09601573 -0.062849395 0.045766555 0.0534909
000040 87 eb 81 3d b2 61 a5 bd 6e f6 83 3c d9 9a 82 bd
       0.063437514 -0.080752745 0.016108718 -0.06377191
000050 36 cf 57 3d 9c 75 41 bd c5 fd da bc d7 50 bb bd
       0.052687846 -0.0472313 -0.026732335 -0.09146278
000060 04 b2 90 3a fe d6 cc 3d c6 92 4f 3d 7d 03 f9 bd
       0.0011039381 0.10001944 0.050677083 -0.121588685
000070 93 1f db bc 97 c6 0c bd 3a bb b3 bd 62 52 68 3d
       -0.026748454 -0.034369078 -0.08775945 0.05671919
000080 3e a2 22 bd ea 78 8f 3d 0f 08 e7 bd 8f e3 da bd
       -0.039705507 0.070054844 -0.11280834 -0.106879346
000090 d1 51 a0 b7 9a c6 0b 3d 80 8d 9c 3c be 0a 77 bd
       -1.9111585e-05 0.034124948 0.019110441 -0.06031298
0000a0 b7 31 c5 3d a5 0c a8 bc e4 07 64 bd 91 57 5e bd
       0.09628623 -0.020513842 -0.055671588 -0.05428273
0000b0 bf 68 c4 3d 33 2d cd bc 69 4d c3 bc d0 08 51 bd
       0.09590291 -0.025045967 -0.023840623 -0.051033795
0000c0 28 35 3a bd 8e 3f d8 bd 79 26 b9 bd 98 38 0f 3d
       -0.04546085 -0.10558997 -0.09040541 0.03496608
0000d0 87 ff 6c 3d 27 8d 8e 3d df 29 e0 bd 78 d0 e4 3c
       0.057860877 0.069605164 -0.10945486 0.027931437
0000e0 05 c2 b6 bd 32 ff a3 3d 21 65 19 3d 3e 89 37 3d
       -0.08923725 0.08007659 0.03744996 0.04480862
0000f0 bc 26 69 3e 86 97 b0 3d cf 1e 2e bd 29 50 46 3c
       0.22768682 0.08622651 -0.04250985 0.012104073
000100 29 c8 5f bd dc b0 04 3d db a8 18 bd 45 a4 97 bc
       -0.054634247 0.03239523 -0.037270408 -0.018510947
000110 f5 a3 da bd 60 f8 82 3c 3e e1 cb bd b4 4e 7b bd
       -0.106758036 0.015987575 -0.09955071 -0.061354354
000120 a2 da bf bd 3b b9 eb bd d5 76 1b bc a9 fd b4 3d
       -0.09367873 -0.11509939 -0.009488781 0.08837444
000130 49 57 9d 3d e9 fa 16 3d 55 d7 76 3c 09 ae dd bd
       0.07682664 0.03686038 0.015065988 -0.1082421
000140 a6 12 65 3c 1a 44 1f 3d 89 83 c6 bd 1b e0 50 3d
       0.013981497 0.038883306 -0.09693057 0.050994974
000150 fc 5f 72 3d 9b c7 79 bc e8 a3 46 bd 65 9a b0 3c
       0.05917357 -0.015245344 -0.048496157 0.021557996
000160 4f 4f 85 3c 8f 0b 70 3d 42 d5 11 be b0 41 26 be
       0.016273169 0.058604773 -0.14241508 -0.16235995
000170 05 d6 3d be ae 5c 9d 3e 88 71 2f be 2c 3c c0 3c
       -0.18538673 0.3073477 -0.17133152 0.023466192
000180 bd 97 76 3e 3d 7a 77 3d 28 83 60 3d 76 5c 90 be
       0.24081321 0.06041931 0.05481258 -0.28195542
000190 31 ff 1b be 18 81 f7 bb fe 29 fb bd b2 0b 9a bc
       -0.15234067 -0.007553231 -0.12263869 -0.018804405
0001a0 a5 45 8c 3d c5 e5 0c 3e ee f1 2d bd 59 d7 d3 3d
       0.06849221 0.13759525 -0.04246705 0.10343809
0001b0 d9 66 84 3d 3c 10 11 3d af 2e 5a bd 69 cd ae bd
       0.06464929 0.035415873 -0.053267177 -0.08535273
0001c0 b6 61 9c 3b a3 26 7c bd e9 9e b0 3d 35 46 cf bd
       0.0047723902 -0.061560284 0.0862406 -0.10120813
0001d0 05 d5 43 3d 9e f0 4b 3e b1 5f 83 3e 69 db 36 3e
       0.047810573 0.19916007 0.25658944 0.17857136
0001e0 12 e0 76 be 08 2c 8a 3e 99 59 82 3e ee fe 32 bf
       -0.24108914 0.26986718 0.25458983 -0.6992024
0001f0 24 1b 64 be 5a b8 97 b9 6d 85 b1 bd 67 79 91 3d
       -0.22275978 -0.00028938317 -0.08668027 0.07103234
000200 52 cb 70 3d 0b a9 bb bd c5 da 4a 3d 9b 1c c4 3b
       0.05878765 -0.09163102 0.04952504 0.0059848554
000210 2f cb 1e bd 5d ed f9 bd a5 b5 dd bd 5e e9 9d 3e
       -0.03876799 -0.122034766 -0.108256616 0.30842108
000220 bd f1 42 3e f4 cc 09 bc 95 b5 2d 3b 84 50 ee 3d
       0.19037528 -0.008410681 0.0026505936 0.11636451
000230 a2 64 0d bd 0f 42 bb be d0 e1 62 be ce f5 ee bd
       -0.0345198 -0.36573836 -0.22156453 -0.11667977
000240 c6 aa ba be ab ff ec bb 47 cc 95 3e 11 12 dd be
       -0.36458415 -0.0072326264 0.29257414 -0.43177846
000250 83 98 1c bd d0 0d f2 3e 5d 2b 64 be 32 39 a0 3d
       -0.038231384 0.47276163 -0.22282167 0.07823409
000260 1a 60 a3 3c c7 9c 43 3c 4f de a1 3c d4 be 62 3e
       0.019943286 0.011939234 0.019759325 0.22143108
000270 52 d9 d6 be 5a 19 d8 3d 5f 8c 86 3e 03 ed 9e be
       -0.41962677 0.105517104 0.2627897 -0.310402
000280 4e 50 82 bd 14 3f 4b 3c 67 09 99 be 75 09 34 bd
       -0.06362973 0.012405176 -0.29889986 -0.04395433
000290 32 48 86 3e 41 0c b0 be 87 de 2a bd c3 91 9b 3e
       0.26226956 -0.3438435 -0.041716125 0.30384645
0002a0 fb 5c e6 bd b0 fb f4 bc 5a ed a6 3d 6d a3 bb 3b
       -0.11248203 -0.02990517 0.0815074 0.005726269
0002b0 ce df 23 be 6a 98 85 be e0 ea e5 3c ab 5c cf 3d
       -0.16003343 -0.26092845 0.028066099 0.10125097
0002c0 4b 1d 6a 3d 86 3a 49 be 1c a9 78 3e d4 c4 4d 3e
       0.057156842 -0.19651231 0.2428326 0.20094615
0002d0 fd 25 4d be 33 09 49 3d 5b 89 00 3e c2 93 f4 bd
       -0.20034023 0.04908104 0.12552397 -0.11942245
0002e0 6e 2f 11 be 89 37 08 3c 8e c8 17 bd 9a d7 6d 3d
       -0.14178249 0.008314022 -0.0370565 0.05806694
0002f0 2a 0d 3d 3e d9 37 66 be fa d0 41 bd 8a b5 55 bd
       0.18462053 -0.22482242 -0.047318436 -0.052175082
000300 8d 9e 9e bd 47 b4 02 3e a7 c1 57 3d f1 3b 05 be
       -0.07745085 0.12764083 0.052674916 -0.13011147
000310 d2 3d 7d 3c 87 de cb 3c 41 26 aa 3d 81 72 85 3d
       0.015456634 0.024886383 0.083080776 0.065159805
000320 51 0c cb 3d e7 9a 9e bd 96 98 89 3d aa 23 b7 3d
       0.099144585 -0.07744389 0.067185566 0.08942349
000330 da 80 55 bd 24 4f c6 3d e3 cd a1 3d a0 54 d5 bd
       -0.052124836 0.096830636 0.07900598 -0.104165316
000340 e3 7e d8 3d 54 6e 7f 3d 5a f7 81 be 1d ec 7d 3e
       0.10571077 0.062361076 -0.25384027 0.24797101
000350 f2 be 85 3e 8e 86 17 bf 35 6c 34 be fc 26 c1 bd
       0.26122242 -0.5918969 -0.17619403 -0.09431264
000360 44 ae 93 bc 13 b0 de 3d a5 05 2c 3e af 84 36 be
       -0.018027432 0.10873427 0.16799028 -0.17824052
000370 1a d5 96 3d 5b a7 47 3d 10 2e 61 3d 92 10 a4 3d
       0.07364865 0.048743587 0.05497557 0.08010973
000380 ad d8 9e bd 17 48 3b bd 39 ba 2f bc f1 51 29 3e
       -0.077561714 -0.045723047 -0.010725551 0.16535164
000390 68 15 d8 bd 00 af 45 3e e4 e2 f3 3d fd 6d 89 be
       -0.10550958 0.19305038 0.1190851 -0.26841727
0003a0 d3 15 22 bd a6 8a cf bd 22 f5 b1 bd b9 e7 42 3d
       -0.039571594 -0.10133867 -0.086893335 0.04758427
0003b0 14 f0 05 be e6 b3 cf be 94 0e 29 3e 95 70 80 3e
       -0.13079864 -0.4056694 0.16509467 0.25085893
0003c0 a0 02 7e be bb c1 96 bd 3d e1 6a be 63 a9 0c be
       -0.24805689 -0.0736117 -0.22937484 -0.13736491
0003d0 a4 d5 0d bc 0c 9c e8 3b 02 7a a6 be 51 1e a5 3e
       -0.008656893 0.0070986804 -0.3251496 0.32249692
0003e0 06 62 2b 3e 9a 2e ce be 17 33 12 3d bf a7 3e bd
       0.16736612 -0.4026993 0.035693254 -0.046546694
0003f0 96 5e 6c be 7b 74 85 bd 2c 09 7e 3c 5a 8a 90 be
       -0.23082957 -0.065163575 0.015505116 -0.28230554

conv_block_2.0.bias f4 [10]
000000 45 ba 0e bd f2 24 e4 bd 7b 78 ce 3d 61 c2 8c 3d
       -0.03484561 -0.11139859 0.100815736 0.06873012
000010 53 e9 38 be b6 da a8 3d f7 76 86 ba 5a fa c6 3e
       -0.18057756 0.08244841 -0.0010258843 0.38862878
000020 83 bd 11 3f 8b ad 0c 3f
       0.56929797 0.54952306

conv_block_2.2.weight f4 [10, 10, 3, 3]
000000 fd 96 f4 bd 00 05 d3 bd 20 22 48 bd 4d 18 9c bd
       -0.11942861 -0.10303688 -0.04886067 -0.076218225
000010 88 93 80 3c bb d9 d2 b9 14 2f b3 3c dd f9 62 bd
       0.015695348 -0.00040216543 0.021873035 -0.05541407
000020 45 17 ab 3d a3 fc ae bc 41 76 9a bd 27 a6 80 be
       0.08354048 -0.021360701 -0.075420864 -0.25126764
000030 46 bf 67 be ac 2b f3 bc 2a 3e 10 bf 1a 4e c3 bc
       -0.22631559 -0.02968391 -0.56344855 -0.023840953
000040 1b e6 e1 3d ee 30 a3 be 4f 36 48 bd 2b cd 8f 3e
       0.11030217 -0.31873268 -0.048879918 0.28086218
000050 4f 61 be 3b f8 5e 72 be 2a ba 46 3e 80 e3 89 be
       0.00580994 -0.2366904 0.19406953 -0.2693138
000060 11 d7 a0 bd e8 f0 85 3e c0 16 99 bd d4 fc cb 3d
       -0.07853521 0.2616036 -0.07475042 0.099603325
000070 77 86 c2 3e 8d 6a d0 be 85 ff 06 bf 24 60 94 bc
       0.37993214 -0.40706292 -0.5273364 -0.01811225
000080 b7 4a 0a be cb 82 ca be 50 15 ee 3d ab 75 2e 3e
       -0.13505064 -0.39552912 0.11625159 0.17037074
000090 2d 58 ca bc 77 39 ce 3d ff 10 81 bb 61 ce 78 be
       -0.024700249 0.10069554 -0.0039387937 -0.24297477
0000a0 20 63 d3 bd c4 c7 30 be 73 f3 af be d3 fb 42 be
       -0.10321641 -0.17263705 -0.34365425 -0.19041376
0000b0 03 52 e7 bc 71 31 86 bd 2e 90 05 bd 88 65 db 3d
       -0.028237348 -0.06552399 -0.032608204 0.10712725
0000c0 5c cc b8 bc ef 13 e6 3c 4f 5d bb 3d 44 fd 1c bc
       -0.022558384 0.028085677 0.091486566 -0.009581868
0000d0 67 db 7b bd 27 22 81 bd bb 59 d6 bc 61 a4 33 3d
       -0.061488535 -0.06305342 -0.026165834 0.043857936
0000e0 7c 6c be bd d7 62 b8 bc 86 e0 8a 3b e5 ba 05 3e
       -0.092980355 -0.022508068 0.004238191 0.13059576
0000f0 26 cf b6 3c 42 ad be 3c 79 14 4f 3d 07 0f c3 be
       0.022315573 0.023275975 0.050556634 -0.38097402
000100 01 b8 83 be e7 46 15 bf 8f 3e d3 be 12 a3 27 be
       -0.2572632 -0.58311313 -0.41258666 -0.163708
000110 81 d5 a3 3b de 6c d2 3e a5 38 00 3f cb 23 99 3e
       0.004999817 0.41098684 0.5008643 0.2991012
000120 28 c6 71 3e 48 c5 d1 be 4c 41 3c be 5c b7 e4 3e
       0.23610747 -0.40970826 -0.18384284 0.44671142
000130 95 f1 4d bd 53 cc 94 3e 58 5c 80 be dd 07 c2 be
       -0.05027922 0.29062137 -0.25070453 -0.37896624
000140 9a d6 90 be 5e 65 d5 bd 6b 03 92 bd 92 8b 00 be
       -0.28288728 -0.10419725 -0.07129558 -0.12553242
000150 a0 b4 66 bd 14 2e 8e be 9a 22 38 3d e9 c5 ad bb
       -0.0563246 -0.2776953 0.044954874 -0.0053031337
000160 98 22 2a be b1 fa 34 bd b5 c5 1a 3d 4a e8 ca bc
       -0.16614759 -0.04418439 0.037786204 -0.024768967
000170 e8 b5 49 bd 7b c4 a3 bd 42 be 2f 3c e1 57 ca bd
       -0.049245745 -0.0799646 0.010726513 -0.09880043
000180 a7 6c c8 3d 2a c1 2d bd 72 9e 14 bd 70 ff 22 be
       0.09786349 -0.042420544 -0.036283918 -0.15917754
000190 65 87 26 3e 20 cb 54 3d 2e 4b 00 3e 17 25 25 be
       0.16262586 0.051951528 0.12528679 -0.1612743
0001a0 f5 82 4a be 2f 9d 99 3e df 5e f6 be ae 98 44 bc
       -0.19776519 0.30002734 -0.48119256 -0.011999292
0001b0 68 0f 37 bd 26 18 df 3c 07 cd dc 3d f2 18 14 3e
       -0.044692427 0.027233195 0.10781293 0.14462641
0001c0 c9 38 01 be 5f c7 00 be 42 90 aa 3e 2c 22 b7 be
       -0.12619318 -0.12576054 0.33313185 -0.3576826
0001d0 c0 d7 3a 3e 08 6a 4a be f6 e6 ca 3e 21 8f b1 bd
       0.18246365 -0.1976701 0.39629334 -0.08669878
0001e0 58 cc 42 be 96 ce f8 be 79 d8 8a 3e d0 f3 8a bd
       -0.19023263 -0.48595113 0.2711828 -0.06784785
0001f0 91 de da be a5 a0 99 3d 67 60 88 3c 8f 12 f1 bd
       -0.4274793 0.07501344 0.01664753 -0.11771118
000200 61 37 2e 3c 7d 77 9a 3d 3b ba 51 be c2 8d 89 3d
       0.010633321 0.07542322 -0.20481198 0.06716491
000210 66 32 29 3c 1c bf 48 be 66 70 98 bd 1b fe 1a 3c
       0.010326957 -0.19604152 -0.07443313 0.0094599975
000220 58 3a fd 3c f4 4a 83 3d 75 60 a0 bc 66 c9 c7 bd
       0.03091161 0.064107805 -0.019577244 -0.097552106
000230 d5 4c 1e 3c a3 4c 11 3d d9 bc 0b 3d 23 fe 7a bc
       0.009661873 0.035473477 0.034115646 -0.01531938
000240 80 0f a5 3d 1b 45 ad 3c 1e 0a d0 3d 00 b2 ad bd
       0.08059597 0.021151116 0.1015818 -0.084812164
000250 f1 7a 34 3d e7 4f d4 bb 1d cb 84 bd 01 fd 44 3d
       0.04406256 -0.0064792517 -0.06484053 0.048092846
000260 af 58 d8 bd 26 44 dc bd 0f c5 04 be b8 95 30 3e
       -0.1056379 -0.10755186 -0.12965797 0.17244613
000270 02 7a e3 bd f0 28 b6 be ff dd d5 3e 64 5e 1e bd
       -0.111072555 -0.35578108 0.41770932 -0.038664237
000280 56 36 15 bf 7f 47 a9 3e 22 02 10 3e 32 dd 6d be
       -0.58286035 0.3306236 0.14063314 -0.2322891
000290 e0 54 67 be 0a d5 2b 3d f7 f5 02 3e 7c 68 07 bf
       -0.22590971 0.041951217 0.1278914 -0.52893806
0002a0 e6 ed 9e be c1 b1 8d 3e fc 1c b3 be 4e 07 29 be
       -0.31040877 0.27674678 -0.3498305 -0.16506693
0002b0 10 99 4b 3d dd cf c2 3e 8c e2 7c be 52 3f 2b be
       0.04970652 0.38049212 -0.24695796 -0.16723374
0002c0 a7 25 30 3e b3 ab 3e be ea f7 57 be 91 e8 fc bd
       0.17201863 -0.18620186 -0.21090665 -0.12349046
0002d0 d2 a9 9b 3d 8b 54 6d 3a e4 57 73 bc 98 ae 44 bd
       0.0760075 0.00090534304 -0.014852498 -0.048018068
0002e0 17 b8 e2 bc a9 19 3e 3d 66 54 25 bb 00 97 a7 3d
       -0.027675672 0.04641119 -0.0025227307 0.08183098
0002f0 11 9a 86 bc 76 db a8 be 2e e9 df be 63 38 c3 bd
       -0.016430886 -0.32979935 -0.4373259 -0.09532239
000300 dd 15 42 3c f9 e4 80 3c ec 66 e4 bd 87 17 79 3c
       0.011846033 0.015734183 -0.11152443 0.015203363
000310 78 18 81 3e 84 1f c4 3e d1 f0 8e be 12 d6 cd be
       0.2521398 0.38305295 -0.27918103 -0.40202385
000320 cb 37 32 be f9 52 2f 3d ce 5e 35 3e f8 bf 5e 3d
       -0.17404096 0.04280374 0.17711946 0.054382294
000330 ac 90 d5 bd 29 1f e1 3d 06 3f b2 3d 92 6f 2e bf
       -0.104279846 0.109922715 0.08703427 -0.6813899
000340 7f 53 fe 3e 90 e2 84 be 96 be 18 3f c9 70 b3 3e
       0.49673077 -0.25954103 0.5966581 0.35046986
000350 63 fa 1c be fc 97 cf be d5 d3 9c be 95 43 0d 3d
       -0.1532989 -0.40545642 -0.30630365 0.03448828
000360 ce 8a 74 3d e4 9a dc bd 4b 42 8b be 95 9d 57 bd
       0.059702687 -0.107717305 -0.27199015 -0.052640516
000370 20 f5 8c 3d d8 92 5c be 99 b8 33 3d 19 d1 84 3d
       0.068826914 -0.21540391 0.043877218 0.06485195
000380 cf e0 1f bd c3 d9 90 3d 5b 13 0c bc 45 b0 11 be
       -0.039032754 0.07072785 -0.008549537 -0.14227398
000390 ea f2 c4 3d dc 67 dd 3c d5 49 3e bc ef 44 dc bd
       0.09616645 0.027027063 -0.011614283 -0.107553355
0003a0 71 74 83 3a c6 66 66 bd f1 ce a6 3d 9d 9f 82 3d
       0.0010029209 -0.056250356 0.0814494 0.063781
0003b0 c0 50 6d 3d 4d 7f 1d 3d e6 e2 b9 bd 4a 65 9d bd
       0.057938337 0.03845148 -0.090764806 -0.07685335
0003c0 a9 e9 a4 bd b6 bb 91 bd e9 9e 43 3d ee 6f 4a bf
       -0.0805238 -0.07115881 0.04775897 -0.7907704
0003d0 35 ae 1b 3f 78 d0 ae 3e a3 f6 14 bf d5 51 fc 39
       0.60812694 0.34143424 -0.5818884 0.00048126155
0003e0 81 3f 6e 3c 3a c7 10 3e 7d dc 66 be 1b 86 42 be
       0.014541508 0.14138499 -0.22545047 -0.1899647
0003f0 53 61 50 3e d5 06 a4 be ef 3c 30 be 94 2c 5d be
       0.20349626 -0.32036462 -0.17210744 -0.21599036

conv_block_2.2.bias f4 [10]
000000 ab 75 c7 3e 61 2d c3 3e 52 96 f2 3c 5c 1a 96 be
       0.3895696 0.3812056 0.029612694 -0.29316986
000010 31 78 8c be 4f f4 b0 3e dd d0 3c be e9 5d 31 bd
       -0.2743545 0.34561393 -0.1843905 -0.04330245
000020 0f b2 d4 bc 16 61 5d be
       -0.025963811 -0.21619067

classifier.1.weight f4 [10, 490]
000000 5a 93 d1 3d 05 c1 33 3e 13 f0 6b bd 01 c0 c6 bb
       0.10233183 0.175541 -0.057602 -0.006065369
000010 a8 09 06 bd 9a f1 d1 3e dd 4b 28 3e 37 18 06 3e
       -0.032724053 0.4100464 0.1643519 0.13095175
000020 db b2 5c bd 55 9c d8 3e 0c 2d 72 3e 13 88 3c 3c
       -0.053881507 0.42306772 0.23649997 0.011507052
000030 4e c5 d5 bc 0c 9b 05 bd b8 84 2e be 72 d9 1c be
       -0.026095059 -0.032618567 -0.17042816 -0.15317324
000040 b7 b0 b1 3d 95 ab 9a bd d6 13 42 be ba 44 cd 3d
       0.08676284 -0.07552258 -0.1895288 0.10022874
000050 49 94 05 bd 3c f4 0d be 45 b4 b5 bd ca c6 05 3e
       -0.03261212 -0.138627 -0.08872274 0.13064113
000060 71 3d 3f bd 56 98 39 be fb 53 fd 3d 70 cb 5f bd
       -0.046689454 -0.18124518 0.12369534 -0.054637372
000070 dd f6 b3 bd 4a 3a 4e bd 76 a0 a5 3d 1c b8 a5 3c
       -0.0878732 -0.050348558 0.08087246 0.020229392
000080 87 4c be 3c b2 05 da 3d 6b 51 95 bd 9d 7d b4 bd
       0.02322985 0.106456175 -0.0729092 -0.08813021
000090 47 ac 04 3d 4c 81 fb 3b f7 79 61 3d fd 84 a0 bd
       0.03239086 0.0076753255 0.055047955 -0.078378655
0000a0 f3 cc 0e bd 8e a5 88 3c ec 92 1d 3d e2 cc 3e 3c
       -0.034863424 0.016680505 0.038470194 0.011645528
0000b0 58 e7 3c bd 02 d8 54 bd a9 44 1f be 1c 15 9e bb
       -0.046119064 -0.051963814 -0.15553536 -0.004824294
0000c0 69 4d 2a 3c d6 4a 4c 3e 67 6c 1b 3e af bd 13 be
       0.010394433 0.19950423 0.15178071 -0.14427827
0000d0 9d a4 9a bd a0 aa 50 bc 76 3f 3a be d0 d2 6b 3d
       -0.07550929 -0.012735993 -0.18188271 0.057574093
0000e0 90 a4 83 3e e5 f1 ed bd 3e b1 02 be 39 32 0b be
       0.2571149 -0.11618403 -0.12762925 -0.13593377
0000f0 a1 a5 cc 3c 6b 11 80 3e 9a f7 ea bc 8b f5 24 3d
       0.024981322 0.2501329 -0.028682519 0.04027323
000100 6d 33 1d 3e 61 8e d0 3c d8 09 f7 bd 3d f1 18 bd
       0.15351649 0.025458517 -0.120624244 -0.037339438
000110 ab ca d7 3d 09 a2 b0 bc 3e 17 06 3e 35 56 a1 bd
       0.10536703 -0.02156164 0.13094804 -0.07877771
000120 a6 fe 00 3e d8 92 35 be e7 ff ab bd e2 30 21 3e
       0.1259714 -0.17731798 -0.08398419 0.15741304
000130 3f 34 7c be 5a 31 a8 3d 0e 62 bb bd be e7 03 3d
       -0.24629305 0.08212538 -0.09149562 0.03220343
000140 aa c0 0d 3d 31 15 16 3e 70 72 45 3e 15 82 0b be
       0.034607567 0.14656521 0.19281936 -0.13623841
000150 af 76 98 bd 2c 07 1f 3e 14 e7 c9 bd 9b a0 16 be
       -0.07444512 0.1553008 -0.09858528 -0.14709704
000160 1a f6 00 bc c8 4e 95 bd e4 5d 9b 3c 3c 26 92 bd
       -0.007871175 -0.07290417 0.018965669 -0.07136199
000170 b2 d4 ad bd 6a 29 aa 3c 34 21 1d be c5 00 8a 3e
       -0.08487834 0.0207717 -0.15344697 0.26953712
000180 70 4b 28 3d 0d 79 35 3e 1e f9 5f 3d 80 bd 7d bd
       0.041087568 0.17721958 0.054680936 -0.0619483
000190 57 02 70 3e 82 8a f7 3d 2b 25 99 3e 51 91 ec 3d
       0.23438393 0.12086965 0.2991117 0.115511544
0001a0 ec bb 51 bc 5b ed 47 3e 03 c7 f2 3d 06 4e dc 3a
       -0.012801152 0.19524138 0.11854365 0.0016807921
0001b0 63 3c 27 3e 85 6c fb bc ef 9b b8 bd a8 41 5e 3d
       0.1633163 -0.030691395 -0.09014117 0.054261833
0001c0 1c 7a 8f 3e 95 1b ed 3d 6a 0f 85 3d 05 8f c3 3d
       0.2802285 0.115775265 0.064970806 0.09548763
0001d0 66 43 64 3e f7 9e 38 3a c9 13 96 bd cd 50 d1 3d
       0.22291335 0.00070427306 -0.073279925 0.1022049
0001e0 af bd 1b bd 20 a2 32 be d5 fe 26 be 0a 60 6d bd
       -0.038022693 -0.17444658 -0.16308148 -0.057952918
0001f0 3d 0e c3 bb ac ec 8e bd 62 94 b0 bd b4 b4 91 bd
       -0.005952625 -0.06978735 -0.08622052 -0.071145445
000200 db c9 3c 3d 69 13 a9 bd 03 0b 37 bd a3 08 01 be
       0.046090942 -0.08255655 -0.044688236 -0.12600951
000210 a0 bf 2e 3b 76 3b f7 3b 74 77 03 bd 96 9d a3 3d
       0.002666451 0.00754493 -0.03209634 0.079890415
000220 de f6 14 bd e9 ed b1 bb 02 2e 70 3b 40 b2 be 3c
       -0.036368243 -0.0054299724 0.0036648517 0.023278356
000230 dc 67 bd bd 39 09 ca 3b 63 44 b3 bc 1b 82 5f be
       -0.09248325 0.00616565 -0.021883195 -0.21826975
000240 d6 ef 69 3c 8b 30 5d bc 34 23 66 bd c7 bf b8 3e
       0.014278373 -0.013500343 -0.056185916 0.36083815
000250 7e 45 4e 3e a8 44 0c be 70 a6 56 be 99 de 94 39
       0.20143697 -0.13698065 -0.20961928 0.00028394608
000260 ee be 85 3c dc 0e 73 3d c8 92 ba 3c 53 0c e1 bd
       0.016326394 0.059340343 0.022775069 -0.10988679
000270 38 ee 87 be 1b 0c 39 be c9 13 6d 3c 7e c8 0b be
       -0.26548934 -0.18071024 0.014470049 -0.136507
000280 01 71 16 be ce 08 7b 3d e6 8a 26 3e 1b 0d ac bd
       -0.14691545 0.061287694 0.16263923 -0.08400937
000290 9a 39 09 3e 46 ab 70 3e e7 51 1e 3e b6 79 48 3e
       0.1340088 0.23502836 0.15460931 0.19577679
0002a0 cd 0c 51 3e f3 cd 18 3e e9 02 bf bc af bd 3f bc
       0.2041504 0.14922313 -0.023316817 -0.011702939
0002b0 42 42 3d 3e 8a b3 12 3e ff e3 7b 3e 48 2c 31 3d
       0.18482307 0.14326301 0.24598692 0.04325512
0002c0 5b 00 bb bc 98 86 08 be f2 03 d1 bd b3 9b e0 3a
       -0.022827318 -0.13332593 -0.10205831 0.0017136246
0002d0 f3 c3 d0 3d e9 1b e2 3d 57 6b 43 be 9f 2f 15 3e
       0.10193624 0.1104048 -0.19083916 0.14568947
0002e0 71 ea 60 bd 1d b5 3d be f4 6c 3e be a4 5d ad 3c
       -0.05491108 -0.1852612 -0.1859625 0.021162815
0002f0 6c 02 23 3e 99 7c 71 be 9e 87 75 bd d9 d0 10 3e
       0.15918893 -0.23582686 -0.059943788 0.14142169
000300 82 6a 8f bc 52 cf 05 be 88 ee db bd a3 16 ed 3d
       -0.017506842 -0.13067368 -0.107388556 0.11576583
000310 a1 84 6c bb 6a a0 fa 3c 65 31 ef bd 8d 5b ad 3c
       -0.0036089795 0.03059407 -0.11679343 0.021161819
000320 b7 c0 9b 3d 8f 7f 5f bb bb 5d de 3c ec 00 c7 bc
       0.07605117 -0.003410313 0.027144304 -0.024292432
000330 2d 80 85 3d d6 34 c4 bb 95 51 bf bc f6 bf f6 3c
       0.06518588 -0.005987744 -0.023354331 0.030120831
000340 9b ad e4 3c 4b b7 0a be 82 51 12 3d ec 80 05 bd
       0.027914813 -0.13546483 0.035722263 -0.032593653
000350 6a ea 13 bd db 9e ea 3c 5b f1 b7 bb 8f e5 92 3e
       -0.036112227 0.028640201 -0.0056134886 0.28690764
000360 96 57 5c bd b5 b0 92 bc f7 21 33 bd 06 ad 54 bd
       -0.053794466 -0.017906526 -0.043733563 -0.05192282
000370 21 68 4e 3c 94 93 6e 3d e2 59 79 3e c9 17 02 3c
       0.012598068 0.05824621 0.24350694 0.007940241
000380 78 41 1e 3a 39 f8 84 3d 10 07 5c 3b 62 c2 04 bd
       0.0006036977 0.06492657 0.0033573546 -0.03241194
000390 a1 fa 8c bd 2d ec 04 be b1 f5 a2 bd 94 4e 39 3d
       -0.06883741 -0.12980719 -0.07957018 0.045240954
0003a0 85 aa ef bc 4b ef df ba de f9 f7 bc 4d f4 81 bb
       -0.029256115 -0.0017084865 -0.030270513 -0.0039658905
0003b0 b1 24 6d bd c4 93 04 be 05 df 32 bd e1 e3 d9 bc
       -0.05789632 -0.12946993 -0.04366972 -0.026597919
0003c0 8f 30 85 bd 96 65 80 3c 79 a1 a4 bb 25 0f a2 bd
       -0.065034024 0.01567344 -0.005024132 -0.07913045
0003d0 94 25 18 bc 62 e7 30 bc 04 e5 2d be 5a 71 75 3e
       -0.009286303 -0.010797353 -0.16981894 0.23969021
0003e0 2b c7 6a 3c 74 2e 32 be 0d fe b7 3d 64 7f 07 3e
       0.014329712 -0.17400533 0.08984003 0.1323219
0003f0 ec 95 c4 3d f8 bd 77 3d 0d 5e 80 3d 4f 5e c6 3d
       0.09598908 0.060483903 0.06267939 0.09685957

classifier.1.bias f4 [10]
000000 5e c6 0a 3e 87 00 93 be 5a 7d c1 3e 5b 98 60 3d
       0.13552234 -0.2871134 0.37790948 0.054832797
000010 d2 39 c8 be e4 f0 35 be f3 72 8e 3c b7 ac a4 3d
       -0.39106613 -0.17767674 0.017388796 0.08040755
000020 b1 21 96 3e 0f a1 0f be
       0.2932258 -0.14026283
